models/human_voice/CNN/train-05-24-2025/CNN-05-24-2025.pt (torch, 501697 bytes, 25 tensors)

block1.0.weight f4 [32, 3, 5, 5]
00000000: e960 6f3d a02e 633d ff11 fcbd 151d babd
00000010: f51e 5039 99c6 0ebc ac5f a03c 9056 02be
00000020: bfe1 7e3c e9d5 d8bd 2954 1a3d 5602 31bd
00000030: b4b7 d3bd 7398 13be f789 ecb9 f6c2 aabd
00000040: df0c a3bd 7ef6 1b3c 7817 aebd 0ca2 46bd
00000050: d1ce 803c a0e9 a0bd b284 da39 a08d 07bb
00000060: 11f6 02bd fe12 1dbe 49e3 dcbd e8f1 e1bc
00000070: c63c 47bc 4b0a 21be 728c 21bc 0259 17bd
00000080: ff08 23bd 106b d8bd 1e9d 68bd 5232 06bd
00000090: d4f7 c2bd 66e7 b1bb 969f ed3b d479 82bd
000000a0: 645e 4dbd 0d84 493d 3b0d a1bc 96d1 08be
000000b0: 40b4 793d 7245 07be f15a f0bc 2ab3 ecbd
000000c0: d476 d7bd 9979 d9bd 92ac abbc a716 bd3d
000000d0: e502 88bd 1c96 433d af87 b3bd 050f 9cbd
000000e0: 6cef 8bbd f054 8abc 04da d93d 9448 993b
000000f0: c3e6 56bd 55fe 81bd f959 3c3d cdf0 203d
00000100: 5197 753d 851f bc3c 984c 413d 49a6 c93d
00000110: fb0a 5dbd 93e0 a1bd d5be a03d 6ad1 f53c
00000120: 83ce c93c 7e59 a93c d236 9f3d bcaa 08be
00000130: 08b5 82bd 4281 d0bd 652f 92bd 554d 96bd
00000140: 5d41 e2bd f0ec d2bd aaad b2bd a1db d6bd
00000150: 13e3 0bbe ccaa 99bd 87d6 ac3c 7a95 913d
00000160: 3c63 8b3d c455 e2bd 5341 a9ba 8da8 7d3b
00000170: b1b7 083d a5dd 69bb 7eb1 98bb b6cf 6c3c
00000180: 016a 78bd 1fe6 bbba e6e6 91bd a727 ecbc
00000190: 9f82 b1bd 1357 0bbe 202a 143c de97 e1bd
000001a0: 99ee 06be d489 49bd 2e70 25bd 7652 0dbe
000001b0: e10e ce3c cd4b e8bd 7293 eabc e34b 6dbc
000001c0: b06f 0b3d 9a5f ce3c 3f5d bcbc 9152 9ebd
000001d0: 1883 233d 8bd7 0abe 6cb2 9dbd 446d 73bc
000001e0: 76fc a33d a3fa 9bbd 58fa f53c 5af9 96bd
000001f0: 849b 18bd 3551 643d 6318 753d fbd5 0c3d
00000200: 4234 12bc cb72 c23d 4620 933d 02e2 d8bc
00000210: d06d c1bc 48b1 acbd e2ae 043d a3e4 943d
00000220: 38ce ed3c 85b0 4bbd f2b7 2f3d 39c2 8c3d
00000230: 7a21 033b 3111 85bc 6edf 09bd f269 ab3c
00000240: aae4 843d 38af a53d 1dad 1fbd 98ae 913b
00000250: daf1 2d3c 89f3 983d 615f 5abb 005d ec3b
00000260: 1e5e 73bc a336 ddbd f391 91bd 1c95 28bd
00000270: be27 1c3c 5fdc 01be aa38 ddbc da47 48bd
00000280: b58a 52bd a4ba f9bc 31ef 6bbd a329 833d
00000290: f869 cabd 98d6 99bd 4408 49bd cffe 91bd
000002a0: a813 4bbd 97b1 3fbd 2f48 08bd 0a50 f7bd
000002b0: d3ff d8bc d45a 9dbd 05b8 9c3d c448 13bd
000002c0: 635b a9bd f9ae 9f3c 89f4 c9bd 511b 413d
000002d0: 046c 803c 637a 9bbc 654c cdbd f971 07ba
000002e0: 5004 e9bc 906d 10be 6192 13be b106 c5bd
000002f0: e0ee 18bd 74b5 c6bd 9167 18bc c607 ce3c
00000300: 5bde 4fbc d938 903b 3c9b 24bd 6ed3 333b
00000310: f4a2 93bc af05 6d3d f032 b23d 250a e4bd
00000320: 586e 823d 0436 5c3a 73f5 a7bc da25 50bd
00000330: 3fa2 d4bd 97f6 69bd 6fd5 433d 6d41 c53d
00000340: d053 5dbd 8f38 df3c 0390 7c3d 458e d6bd
00000350: d10f 9ebc d23e e53c 4149 473d 0169 c43a
00000360: ac83 b03c d08b 31bc 7b5b 203d 60c3 0c3d
00000370: 6389 f33d f279 073d 200b ee3d 1fe4 2abd
00000380: 2d90 863d d539 c7bc 5f0b d6bb b849 4f3c
00000390: 7db5 b3bd 96b8 b4bd 46c8 dfbd 4eac 893d
000003a0: 0655 bf3d 23d1 ef3c efc3 efbd 188c 96bc
000003b0: 8759 ed3d 41d1 873d 09b0 98bd 203b 1a3d
000003c0: 378d e93d b5ae f93d 7877 49bd 78a6 dbbd
000003d0: 0720 933d 9c28 27bc 3be6 d53d ad9c 003c
000003e0: c8f0 83bd 18e0 0abd aa30 143d 9ccf 5cbd
000003f0: 6cd8 9ebd 5a59 96bd 93a2 9abc bde0 b03d
0.05844203 0.055464387 -0.1230812 -0.09087578 0.00019847958 -0.008714342 0.01957687 -0.12728333
0.015556752 -0.10587675 0.037677918 -0.04321512 -0.10337773 -0.14413624 -0.0004511622 -0.08337967
-0.07961439 0.009519218 -0.0850057 -0.048494384 0.015723618 -0.078570604 0.00041679066 -0.002068378
-0.03197295 -0.15339276 -0.10785539 -0.02758117 -0.012160486 -0.15726583 -0.009860145 -0.03695012
-0.0398035 -0.105672956 -0.056790464 -0.032762833 -0.09519926 -0.005429196 0.00725169 -0.06370893
-0.050138846 0.0491982 -0.01965963 -0.133612 0.060962915 -0.13210085 -0.02934024 -0.1155761
-0.105207115 -0.10618896 -0.020956311 0.09232836 -0.06641177 0.047750577 -0.08766114 -0.07620052
-0.068327755 -0.016886204 0.10637286 0.0046778414 -0.052466165 -0.06347338 0.045984242 0.039292146
0.05995876 0.022964248 0.047192186 0.098461695 -0.05396555 -0.07904162 0.07848898 0.030007083
0.024634605 0.020672556 0.07774128 -0.1334638 -0.06382185 -0.10180904 -0.07137946 -0.07338969
-0.11047623 -0.102990985 -0.0872453 -0.1049111 -0.1366084 -0.0750328 0.021098388 0.071085885
0.06806037 -0.11051515 -0.0012913145 0.00387052 0.033378307 -0.003568509 -0.0046598306 0.014453819
-0.06064797 -0.0014335549 -0.071241185 -0.028827501 -0.08667492 -0.13607435 0.0090432465 -0.110152945
-0.13176955 -0.04920371 -0.040390186 -0.13800988 0.02515358 -0.11342583 -0.02863476 -0.014483425
0.03404206 0.02519207 -0.022993682 -0.07730592 0.039919943 -0.13558786 -0.07700047 -0.014857594
0.080071375 -0.076161645 0.0300266 -0.07371779 -0.037257686 0.055741508 0.05983771 0.034383755
-0.008923592 0.09494551 0.0718389 -0.026474956 -0.023611933 -0.08432251 0.032393344 0.072701715
0.029028997 -0.04972889 0.042900033 0.068729825 0.0020008967 -0.016243549 -0.033660345 0.020924542
0.06488927 0.08090061 -0.038983453 0.004445862 0.010616744 0.07468326 -0.003332101 0.007213235
-0.014853982 -0.10801437 -0.07107916 -0.041157827 0.00953096 -0.12681721 -0.027004559 -0.048896648
-0.051401813 -0.030484505 -0.057601158 0.06404426 -0.09883493 -0.07511634 -0.04908015 -0.07128679
-0.049579293 -0.046800222 -0.033271965 -0.12075813 -0.026489174 -0.0768334 0.076522864 -0.035958067
-0.08269384 0.019492613 -0.098610945 0.04714519 0.015676506 -0.018979257 -0.10024337 -0.00051668246
-0.02844444 -0.14104295 -0.14411308 -0.09620417 -0.037337184 -0.09702578 -0.009302036 0.025150191
-0.012687291 0.004401308 -0.040187106 0.0027439254 -0.018022038 0.05786675 0.08701122 -0.111347474
0.06368703 0.0008400383 -0.020502781 -0.050817348 -0.103825085 -0.057119932 0.047810968 0.096316196
-0.054035008 0.027248649 0.061660778 -0.104763545 -0.019294651 0.027984057 0.048653845 0.0014984907
0.021547161 -0.010836557 0.039149743 0.03436601 0.11891439 0.03307528 0.11623216 -0.04172146
0.06570468 -0.024319569 -0.0065321173 0.012651853 -0.087748505 -0.088242695 -0.10926871 0.06722318
0.09342389 0.029274529 -0.11707293 -0.018377349 0.115893416 0.06631709 -0.07455451 0.037654042
0.11403888 0.12191526 -0.0491862 -0.10725111 0.07183843 -0.010202553 0.104443036 0.007849854
-0.0644241 -0.03390512 0.036179222 -0.05390893 -0.07756123 -0.07341261 -0.01887635 0.086366154

block1.0.bias f4 [32]
00000000: 5574 3cbc ad61 f93d 88ea 84bd c113 bebd
00000010: 3782 42bd 0573 b13d d967 34bd 22b3 c4bd
00000020: 538e 2abd a7fe af3d c325 d0bd db4a a3bb
00000030: 500d 143d 95db 4f3d 9a87 af3d 0560 a5bd
00000040: 4925 cf3d c02e 8bbd d63e ebbd e4ee e83c
00000050: feea df3d 4ff6 0cbc 42c2 1d3d 9b2b 883c
00000060: d582 843d 2ada cfbd 521c 863d 2cdf 9e3c
00000070: bb15 af3d bc5f 0f3d d1c2 6fbd 431a fabc
-0.011502345 0.12176833 -0.06490046 -0.092811115 -0.047487464 0.08664516 -0.04404435 -0.09604479
-0.041639637 0.08593493 -0.101634525 -0.0049832887 0.03614551 0.05074652 0.08570786 -0.08074955
0.101145335 -0.06796026 -0.114865944 0.028434224 0.10933493 -0.008603646 0.038515337 0.016622355
0.06470267 -0.10149033 0.065483704 0.019393526 0.08549067 0.03500341 -0.0585354 -0.0305301

block1.1.weight f4 [32]
00000000: d46f 773f 5325 813f 60c8 7d3f e46e 833f
00000010: b9b9 783f e09a 7f3f 4ea8 803f 952e 7a3f
00000020: ef03 7c3f c342 833f 35fe 753f 0876 783f
00000030: e7ea 743f 22c6 753f 2444 753f 1079 8a3f
00000040: d468 7a3f 826d 7b3f 9847 873f ab0f 843f
00000050: e9ff 823f e24f 873f bd83 803f 3748 6d3f
00000060: 5900 853f a1ea 783f 6ffd 833f 5904 743f
00000070: f7ca 793f 6dc2 803f 0a44 6f3f 4072 833f
0.9665501 1.0089515 0.99133873 1.0268216 0.9715839 0.99845695 1.0051363 0.9772733
0.984435 1.0254749 0.96091014 0.970551 0.9567093 0.9600545 0.958071 1.0818195
0.97816205 0.9821397 1.0568724 1.0317281 1.0234348 1.0571253 1.0040203 0.92688316
1.0390731 0.97233015 1.0311717 0.95319134 0.97575325 1.0059334 0.93463194 1.0269241

block1.1.bias f4 [32]
00000000: 5dc1 4dbd 1ba8 29bd 8837 54bd 7ca8 dd3c
00000010: 8d53 2d3c 6891 0cbd 2105 5abd 613b 8fbd
00000020: 5993 46bd 317e 683c 9d1b 2ebd 74e5 a0bc
00000030: 9258 8cbc 1145 2dbd 68fc 033b a861 f53b
00000040: 633b 58bd a6fb acb9 616a 913c 0b4e 4e3d
00000050: d843 47bd 40f4 433d 0d3a c03c ac2f 8ebd
00000060: 4352 263c bbd7 93bd 3333 d93c 81b9 42bd
00000070: 508d 563c cb95 21bd 86c4 7fbd 27e3 8d3a
-0.050233234 -0.041420083 -0.05181077 0.027057879 0.010579002 -0.034318358 -0.053227548 -0.069937475
-0.048480365 0.014190243 -0.042506803 -0.019640662 -0.017132077 -0.042302195 0.002013946 0.007488448
-0.05279101 -0.0003299389 0.01775092 0.050367396 -0.048648685 0.047840357 0.02346518 -0.069426864
0.010151449 -0.07218882 0.026513672 -0.04754019 0.013095215 -0.039449494 -0.06244328 0.0010825143

block1.1.running_mean f4 [32]
00000000: a616 38bf d261 e7be f044 27bf 4e6c 23be
00000010: c8d9 4c3e a466 1ebf 208f 8abe 63e4 3ebf
00000020: 2fd5 0abf a932 363d 0c12 1ebf 0ae9 143f
00000030: 94d3 563f 31eb f23d 5491 073f 2516 2f3e
00000040: 41db fd3d e7a3 85be d4b1 cc3d c214 a53e
00000050: a25a 1d3e f20e 69be e44f 173e 54f0 a7bd
00000060: 7b98 c43d a6cf 2d3f 6047 b33c 94e4 3dbe
00000070: 5b85 423d 562f 98be 0c02 e0bd 655c 3a3b
-0.7190956 -0.45191818 -0.65339565 -0.15959284 0.20004952 -0.6187537 -0.2706232 -0.7456724
-0.5423154 0.044481907 -0.6174629 0.5816809 0.8391659 0.118612655 0.5295613 0.17098291
0.12395335 -0.2610161 0.099948555 0.322424 0.15366605 -0.22759607 0.1477657 -0.08200136
0.09599396 0.6789497 0.02188462 -0.18544227 0.04749046 -0.29723614 -0.109378904 0.002843642

block1.1.running_var f4 [32]
00000000: 2763 473e 241a 3b3e 9f86 193e bb7b d23b
00000010: a58c 603c bcc9 633e 25cc e43c d0dc eb3d
00000020: dfe6 443d cd74 df3b 6bdf 883d db5e 3c3d
00000030: 719a 133e 92ff 9c3b c9a8 aa3d 13a8 fd3b
00000040: 769f 463c 20aa 913b 32ab 6c3c 8268 913c
00000050: 06af 123b 76a8 213d 6b07 043c 15ce 343d
00000060: 004d 703b 0bf4 653d f42b 143b c041 273c
00000070: 8985 593b e942 c03c ef00 553b 9d07 143c
0.19471417 0.1827169 0.1499276 0.006423441 0.013705407 0.22244924 0.027929375 0.11516726
0.04807174 0.0068193437 0.066832386 0.0459889 0.14414383 0.0047912085 0.083329745 0.0077409833
0.012122979 0.0044453293 0.014445113 0.017750029 0.0022382154 0.039467297 0.008058409 0.044141848
0.003666699 0.05614094 0.0022609206 0.010208547 0.0033191165 0.023469405 0.0032501777 0.009035018

block2.0.weight f4 [64, 32, 5, 5]
00000000: 1a0a 013c 4439 a63c 2006 f9bc 444e 6abc
00000010: 3f43 2dbd e644 083d e90f 69bb f208 e1bc
00000020: 7932 bf3a 18c8 06bc 31db a13b 8ee9 533c
00000030: 5e6f ca3c 1771 80bc 8e50 1abd 5ac6 6fbc
00000040: 33bb eabc 7a69 cc3c e950 2abd 0a6f 8ebb
00000050: b0b2 df3c 771b 80bb e63c 41bc bd2a bc3c
00000060: d8ea 6abc 521d ac3c 7399 bdbc 9a41 d9bc
00000070: f0e3 cdbc ccbd 8f3b 973d 0f3c f022 c03c
00000080: 65b0 7c3c a3eb 17bc 3d15 513b dfc6 97bc
00000090: 40e3 71bc cc72 0ebb 5c9a b3bc f2fc 66bc
000000a0: 5d47 f13c 310d 8abb 4331 e83b abaf d53c
000000b0: 4801 05bd 6f50 99bc 967b 01bd cdb8 f03c
000000c0: 9335 91bb 2a7d e43c e3c2 683c a949 283d
000000d0: 2887 373b ce5c c7bb f8e5 09bb 0f03 a3bb
000000e0: 3c6c 123b df68 3d3c 1812 1ebd c7ec 35bd
000000f0: ea4d e2bc 8004 b93c 1d06 733c 2251 613c
00000100: 23fb 27bd e6a2 f13b f784 803a bb55 a5bb
00000110: ed3f f1bc 9811 49bb 4cb9 ecbc f966 9abc
00000120: 5b1d a6bc e61b 3a3c 1625 9bbc ce25 643c
00000130: b755 50bc ff16 a1bb bc6e 9fbc ed9a 62bd
00000140: e9f1 7b3c d1b1 f8bc 60b1 10bd 6edf 63bd
00000150: 0f80 c93c 03a6 aa3c 6aa6 813c 4830 24bd
00000160: 1069 05bc 396d 233d bc50 1fbd cb90 c73b
00000170: 1e7a e0bc 2a57 72bd a28b 39bd 3ab0 0f3a
00000180: 589c 21bd 343c 6abd 6192 83bd dbd5 71ba
00000190: 1408 153c 7623 473c 5317 0dbd 7851 b53c
000001a0: 4052 023b 97b7 c0bc 5f81 6fbc 2b96 6dbd
000001b0: 1ccc 63bc 0501 99bc 62db 15bd ec12 12bd
000001c0: 2837 a9bc 2388 c33c 18e6 893d 4a1e c73c
000001d0: 059d 323d e43d 6c3b 6578 053d 4755 ad3c
000001e0: c2a3 e2bc 3d64 b23d 8779 0ebb a5ef 023d
000001f0: 7ab7 b23d 0aa9 2f3d 851c eb3b b2ea fe3b
00000200: e2b7 67bc a424 55bb fe6a 51bc 74b7 553c
00000210: b5cf 0c3d aff2 8f3c c187 ebbc c37e 453c
00000220: 2565 093d 0d9e 623c 7557 463c 56d6 983c
00000230: b5af 933b e568 083c 4de2 19bd 7c1d 53bc
00000240: b1fd 10bd 0958 d9bc 9f05 e4bc f33b 803c
00000250: 527f 893c cdf0 323c 1098 d4ba 6f10 1abd
00000260: d9e3 babb c671 353c bbed 243c 9cf3 a93b
00000270: 98e0 8b3a afce 123d bc45 f03c c25a 373c
00000280: 9f00 c63c e051 f83a ef47 e1bb 38f9 193d
00000290: 7da1 483d 75a5 65bc 0e03 26bd d610 85ba
000002a0: f528 83bc 1265 07bc 5a46 19bc 9456 7d3b
000002b0: d900 d0b7 c7dc 973b be30 2e3d df84 213c
000002c0: 8a2b 88bc 54ea fc3b c8b4 bcbc fbba 4a3c
000002d0: 3536 283d eefb 333c 6a35 a1bc fccf 233c
000002e0: 5b5c bfbc bc11 363d 5ccd 4e3b 37bb 273c
000002f0: 51bd fd3c 1821 363b 6ef5 f239 4be3 f73c
00000300: b2ef a6ba 6b56 cfbc e4b6 19bc c98b f23c
00000310: 7ba1 883b 631e 8fbc 6c0c 1c3d 30d7 b93c
00000320: 1474 efbc e0ab 173d 18d6 c33c c6c2 ba3c
00000330: 2f78 f83c e1aa ea3c 9fa2 883d 77d3 e3bb
00000340: b11c 4c3d 7420 693c 6d00 843d 5826 033d
00000350: e41c 0a3d c342 ef3c 5923 b43c 9644 573d
00000360: 25f1 e9ba 7acc 2c3d 641a adbc e4c9 c53c
00000370: 4471 e73d 9031 e23c 32cb d43c 6639 093d
00000380: 9e93 7b3c d743 4fbc 26f6 ddbb 254c ccbc
00000390: 79cf 47bc 0dd0 a83a 6fd4 05bc 0982 88bc
000003a0: d206 c3bc 4add 483c 7a2c 24bd 9bd7 92bc
000003b0: 2e02 3cbd 1c47 04bd 925d 823b 30d5 08bd
000003c0: e791 a0bc 06a3 5dba 2e45 f4bc 1a2a 16bd
000003d0: 39f1 883c 6266 f9bc 19e8 abbd b1ff fabc
000003e0: 24f8 a2bd 5173 6fbd 646d bbbc 91a2 88bb
000003f0: 5e35 b03c fb6e fdbb 3319 f13b 6145 943b
0.007875944 0.020290978 -0.030398428 -0.014300887 -0.04230046 0.03326883 -0.0035562462 -0.027470086
0.0014587186 -0.008226417 0.0049394597 0.012934102 0.024711307 -0.015678925 -0.03767448 -0.014634693
-0.028653717 0.024952639 -0.04158107 -0.004346733 0.027306885 -0.003909524 -0.0117943045 0.022969598
-0.014338218 0.021010075 -0.02314446 -0.02652054 -0.025133103 0.004386639 0.0087427115 0.02345416
0.015422915 -0.009272489 0.0031903528 -0.018527446 -0.014763653 -0.0021735905 -0.02192419 -0.014098393
0.029452974 -0.0042129983 0.0070859506 0.026084742 -0.032471925 -0.018715112 -0.031612 0.029384995
-0.0044314354 0.027891714 0.014206621 0.041085873 0.0028004143 -0.006084061 -0.0021041613 -0.00497473
0.0022342345 0.011560648 -0.038591474 -0.04441526 -0.027625043 0.022585154 0.0148330005 0.013752254
-0.041010987 0.0073741553 0.0009805252 -0.0050456203 -0.029449428 -0.0030680653 -0.02889695 -0.01884793
-0.02027767 0.011359191 -0.018938582 0.013925029 -0.0127157485 -0.0049160714 -0.019461982 -0.05532353
0.0153775 -0.030358227 -0.035325408 -0.055633 0.024597196 0.020831114 0.015826423 -0.040085107
-0.008142725 0.039899085 -0.038895354 0.0060902587 -0.02740198 -0.059165157 -0.04529918 0.0005481277
-0.03945574 -0.05718632 -0.06424404 -0.00092252874 0.009096164 0.012154451 -0.03444607 0.022133574
0.001988545 -0.023525042 -0.014618247 -0.05800454 -0.013903644 -0.018677244 -0.036586173 -0.035662577
-0.020656183 0.023868626 0.0673334 0.024306435 0.043606777 0.0036047632 0.03258552 0.021158827
-0.027665976 0.08710525 -0.0021739916 0.031966824 0.087264016 0.042885818 0.0071750307 0.0077794427
-0.014142962 -0.003252306 -0.012781857 0.013044227 0.034377772 0.017571775 -0.028751256 0.012054148
0.033543725 0.013831628 0.012105812 0.01865689 0.00450703 0.00832579 -0.037569333 -0.012885448
-0.03539819 -0.026531236 -0.027834712 0.015653586 0.016784344 0.010921669 -0.0016219635 -0.03761333
-0.005703431 0.011074489 0.010066445 0.005186511 0.0010671793 0.03584164 0.029330127 0.011191072
0.024170218 0.0018945299 -0.00687503 0.03759119 0.048982132 -0.014016499 -0.040530257 -0.0010152112
-0.01601074 -0.008263843 -0.009355152 0.003865634 -2.4795927e-05 0.004634473 0.042526953 0.009858339
-0.016622324 0.007718364 -0.023035422 0.012373681 0.04106732 0.010985358 -0.01967879 0.009998318
-0.023359468 0.044450507 0.003155551 0.010237507 0.030974062 0.0027790722 0.00046340696 0.030259749
-0.001273623 -0.025309762 -0.009381983 0.02960767 0.0041696406 -0.017470544 0.038097784 0.022685617
-0.029230155 0.037029147 0.023905799 0.022797953 0.030330746 0.028645935 0.066716425 -0.006952699
0.04983205 0.014228929 0.06445394 0.03201899 0.03371896 0.02920664 0.021989511 0.052555643
-0.0017848356 0.04218719 -0.021130748 0.02414412 0.113009006 0.027611524 0.025975797 0.033502005
0.015355019 -0.012650452 -0.006773728 -0.024938652 -0.012195461 0.0012879387 -0.008168324 -0.016663568
-0.023806963 0.012259791 -0.04008148 -0.017925074 -0.045900516 -0.032294378 0.0039784396 -0.033406436
-0.019600822 -0.00084547733 -0.029818144 -0.036661245 0.016716586 -0.030444328 -0.083938785 -0.030639501
-0.07957485 -0.058459584 -0.02287931 -0.00416977 0.021509822 -0.007734177 0.0073577403 0.004524872

block2.0.bias f4 [64]
00000000: 3d61 d4bb e150 8cbb 2136 7b3c f69d 2dbc
00000010: b40c 4e3c 427a 073d b85e dd3c afa5 b4bc
00000020: bc2b 9fbc df71 04bd 2ce3 5b3c 7cf7 b0bc
00000030: f41d 7dbb 7401 87ba 13d7 ecbc 9082 87bc
00000040: 9bd9 05bd 796d 123d 95b4 c4bb 1939 d939
00000050: fd6d 1fba 363e 18bd 5996 5a3b 6e47 01bc
00000060: 7330 e03c d3e9 cc3c d402 08bc 7f8e ff3a
00000070: 86b7 92bc c896 ceb9 1986 c43c de91 8b3c
00000080: 5fdb 603b 47f6 bebc 9071 32bc 1ab4 99bc
00000090: 0b3c d93c 97d7 1abc a627 313c b262 a03c
000000a0: 3743 d939 5fe1 943b 8e30 3ebc bbcb 99bc
000000b0: 3546 60bc 35d8 ebbc 0102 59bc 4059 03bd
000000c0: e3e6 a0bc 8c5b b53c b9ff 8dbc e399 cd3c
000000d0: a8b5 40bc e0c9 01bc e6ce c93c eae8 3e3c
000000e0: 17bc 213a 04ed a03c 7543 d3bb 29fd 303c
000000f0: 5196 8b3a b976 b4bc 4450 e1bc 5f50 883c
-0.0064813183 -0.0042821025 0.01533273 -0.010596743 0.012576271 0.03307558 0.027022704 -0.02205166
-0.019430034 -0.03233516 0.013420861 -0.021602385 -0.003862259 -0.0010300116 -0.02891115 -0.01654175
-0.032678228 0.035748933 -0.0060029724 0.00041432006 -0.0006081758 -0.037168704 0.0033353774 -0.007890565
0.027366852 0.02501384 -0.0083014555 0.0019497423 -0.017909776 -0.00039403723 0.023989724 0.017037328
0.0034310443 -0.023310794 -0.010891333 -0.018762637 0.026517889 -0.009450815 0.010812676 0.019578312
0.00041439544 0.004543468 -0.011608256 -0.018773904 -0.013688614 -0.028789619 -0.013245107 -0.032067537
-0.019641345 0.02213838 -0.017333852 0.025097793 -0.01176206 -0.007921666 0.02463479 0.011652211
0.000616969 0.019644268 -0.0064472505 0.010802546 0.0010649656 -0.022029268 -0.027504094 0.016639886

block2.1.weight f4 [64]
00000000: ac3b 873f 344d 853f 592a 853f bae2 703f
00000010: ddc9 803f 6b92 703f 67e9 783f da3e 803f
00000020: 445c 813f 085c 803f 985d 7c3f 4427 753f
00000030: 9eda 823f c2ef 713f 3170 843f a33a 853f
00000040: 9eb4 743f 7669 853f 5885 863f fa20 833f
00000050: 9735 883f fc4d 763f ef8d 7e3f c7ab 783f
00000060: 0144 743f 0a58 813f 6f0d 7e3f 5db0 7b3f
00000070: bf63 803f fda1 803f b5eb 803f b42e 893f
00000080: 0175 703f b50b 7a3f 5126 7a3f ae63 803f
00000090: a69b 813f e4af 813f c619 713f 0725 793f
000000a0: 8cac 863f d773 7f3f dae1 813f 3dd4 863f
000000b0: ad36 7f3f b9e0 7c3f c4be 843f 9758 753f
000000c0: e0c5 813f 4ab9 803f 57f7 823f a55b 783f
000000d0: cf6a 663f 81e0 7e3f bd35 6f3f 2c51 753f
000000e0: 52f2 833f c869 7a3f a6a4 703f ded5 863f
000000f0: a2f5 7b3f 0eae 703f c42e 763f a72a 843f
1.0565085 1.0414186 1.0403548 0.9409596 1.0061604 0.93973416 0.97231144 1.0019181
1.0106282 1.0028086 0.9858031 0.9576304 1.0222967 0.94506466 1.0346738 1.040852
0.955881 1.0422809 1.0509443 1.0244439 1.0641354 0.96212745 0.99435323 0.9713711
0.95416266 1.0104992 0.9923925 0.98315984 1.003044 1.0049435 1.0071932 1.0717378
0.93928534 0.97674114 0.97714716 1.003042 1.0125625 1.0131803 0.9417995 0.97322124
1.0521407 0.9978613 1.014705 1.053352 0.99692804 0.987804 1.0370717 0.958383
1.0138512 1.0056546 1.0231732 0.9701484 0.90006727 0.99561316 0.93441373 0.95826983
1.0308325 0.9781766 0.94001234 1.0534017 0.9842168 0.94015586 0.9616511 1.0325516

block2.1.bias f4 [64]
00000000: 7e75 0abb 85f1 883c 9d2f 30bb 4914 56bd
00000010: 9849 423c a243 8abd e8b4 07bd 27af d0bc
00000020: ead7 92bd 59cb 69bd 5c2f 8abd a3fc a8bc
00000030: 0d36 1bbd cc5f acbd 3db0 b6bc 4bf2 b3bc
00000040: 1911 413c 7081 0a3b fc7d 433c a39e a33c
00000050: 9a92 6e3c d455 7cbd 1d0a 42bc e5bf d2bc
00000060: 7b91 6ebd 2bf3 513c 2932 04bd 840b 213d
00000070: 9aed 3dbd 7e3f 9cbc 032b bd3c 9838 91bb
00000080: d331 60bd ff4e 33bd 32be 6ebd af5d e13b
00000090: 1b28 253a 328a edbb 74f5 87bd 171c 10bd
000000a0: c0a8 e13b c7c8 24bd 3e5b 853c 7b5e 42bc
000000b0: 1637 24ba 1b7c 3ebd ab35 edbc c788 4dbd
000000c0: 604a d5ba b9d1 bfbc 6ca4 5dbd 3b0b 60bd
000000d0: 0aae aabd 94b2 30bd e108 71bd fafe 093c
000000e0: 8f5e e4bc 439a 2dbd 6bf0 a9bd 240b 5c39
000000f0: 7103 34bd 79c4 22bd 27d1 58bd 972e e9bc
-0.002112716 0.016716728 -0.0026883848 -0.05226544 0.011858366 -0.06751181 -0.03313151 -0.025474144
-0.071700886 -0.057078693 -0.06747314 -0.02062828 -0.037893344 -0.08416709 -0.022300834 -0.02196612
0.011783862 0.002113428 0.0119318925 0.019973105 0.01456132 -0.06160529 -0.0118432315 -0.025726268
-0.05824421 0.012814323 -0.0322744 0.039317623 -0.046369173 -0.019073244 0.023091799 -0.0044317953
-0.054735016 -0.04377651 -0.058286853 0.006877623 0.00063002267 -0.00724914 -0.06638613 -0.03518304
0.0068865716 -0.04023054 0.01627886 -0.011863346 -0.0006264312 -0.046505075 -0.028956255 -0.05017927
-0.0016272776 -0.023415433 -0.054111883 -0.05469821 -0.083339766 -0.043139055 -0.05884636 0.008422608
-0.02787712 -0.042383444 -0.08297809 0.00020984985 -0.043948594 -0.039738152 -0.05293384 -0.028464599

block2.1.running_mean f4 [64]
00000000: a995 53bf a402 1c40 0c53 9fbf cb47 6bc0
00000010: 9d8e 9140 02a1 a1bf 58b3 1cbf f051 903d
00000020: 7124 4a40 ab2a d2bd cd77 4040 794d 8fc0
00000030: 69e0 44be 4c7b 133f 087e 4a3f 30d2 2ac0
00000040: e259 35bf ee69 99c0 ddb5 7dc0 ca48 2ac0
00000050: 92c7 86c0 8ddd 0c3f a6ac d9bf 6bf3 a73d
00000060: 4741 b0bf ea60 bb40 17be 9140 f0de cd3e
00000070: a4f4 45bf 6a85 c7be 7540 973f 0d24 49c0
00000080: 4fcb c2be 56ae 5bbf 99e9 723f 5d18 05c0
00000090: aecb efbe e341 cbbf b86a b0bf d8df b4bf
000000a0: 54bc 10c0 9ac0 1fbf 2188 0840 faba e4bf
000000b0: 9ea3 e83e f014 88bf 5b21 2240 7c03 8ebe
000000c0: 06dd a93f 67eb f6bf 2740 41bf e811 34c0
000000d0: d3d5 3ebf 5a29 dbbf 4185 0bc0 64b7 4bc0
000000e0: a2fe 36c0 a3f9 413f 42e0 433e 2aa4 0ac0
000000f0: 3356 02c0 180e a5c0 96ee 92bf 1afa 3ac0
-0.8265024 2.4376612 -1.2447219 -3.676257 4.548659 -1.2627261 -0.61211157 0.07046878
3.1584742 -0.102620445 3.007312 -4.478207 -0.1922623 0.5761001 0.7909856 -2.6690788
-0.70840275 -4.794181 -3.964225 -2.6606927 -4.2118616 0.5502556 -1.7005813 0.08200725
-1.3769921 5.8555803 4.5544543 0.4020915 -0.77326417 -0.38968974 1.1816546 -3.1428254
-0.38045737 -0.8581289 0.9488769 -2.079612 -0.46835083 -1.5879482 -1.3782568 -1.4130812
-2.2614946 -0.6240326 2.1333086 -1.7869561 0.4543733 -1.063139 2.5332859 -0.27737033
1.3270576 -1.9290589 -0.75488514 -2.813593 -0.7454502 -1.7121994 -2.1800082 -3.1830683
-2.8592916 0.7577154 0.19128516 -2.1662698 -2.0365112 -5.1579704 -1.1479061 -2.921515

block2.1.running_var f4 [64]
00000000: 9e4e 9340 c72c 5541 d176 0441 4ee1 9641
00000010: fb64 1441 d840 4f41 76af a741 c8c9 8a41
00000020: 421d bb40 d9e0 aa41 c423 d840 bd67 e340
00000030: 2897 6041 a40e 0141 1228 8941 b43b 3a41
00000040: a4a4 2841 6580 c741 6cae 6b41 4989 5a41
00000050: 5581 3d41 a927 7641 ac09 9241 cbae c540
00000060: 178f 2541 6710 3b41 5b27 5641 90de 0141
00000070: 689c a141 d532 0f41 7814 2a41 01ab 0a41
00000080: e72b 9540 7abf 9240 50f4 5441 33ae bb41
00000090: 549d 5b41 816a 1541 4c18 a241 20c8 9841
000000a0: 04c1 6e41 825d 6e41 a7c1 8c40 4179 0741
000000b0: dd22 3d41 b1af 6d41 4885 9440 5b4b 4741
000000c0: 513c 4f41 f382 ec40 f847 5941 9ef6 6841
000000d0: 5fdc b841 1b0f 7c41 018b d341 fc52 8441
000000e0: 101d 4b41 1ea6 0e41 192d 7040 a9df 0341
000000f0: 538b 0841 0cb6 4e41 5012 0241 cf7a 1141
4.603347 13.323432 8.279008 18.860012 9.274653 12.953331 20.960674 17.348526
5.8473215 21.359789 6.754366 7.1064134 14.036903 8.066074 17.144566 11.639576
10.540195 24.937693 14.730083 13.658517 11.844075 15.384683 18.254723 6.177587
10.347434 11.6915045 13.384608 8.116837 20.20137 8.94991 10.629997 8.666749
4.661609 4.5858736 13.309647 23.460058 13.72591 9.338502 20.261864 19.097717
14.922123 14.897829 4.398639 8.467103 11.821012 14.855393 4.6412697 12.455897
12.952226 7.390985 13.5800705 14.560209 23.107603 15.753688 26.442873 16.54052
12.694595 8.915556 3.7527525 8.242105 8.534015 12.919445 8.129471 9.092483

block3.0.weight f4 [128, 64, 2, 2]
00000000: c9bd 2e3d 5516 dcbc db25 0ab8 79f9 0f3d
00000010: 9862 353d 51a5 233d 05f2 a2bd 33d2 433c
00000020: 94f3 d9b9 0327 eabb 19cc ad3c 9c4e bc3d
00000030: b880 7dbd ab73 9d3b 0ca0 233c a6f7 32bc
00000040: 844f 78bc 153f 373d 6ca7 1c3d 856c c7ba
00000050: 10c1 123d 9eec 613d edce 1f3d b619 58bc
00000060: 9ca2 15bc b349 c53c 7913 4fbd e61e 4ebd
00000070: 7553 d73d 0f35 b23c 8b70 1e3d 9422 9a3d
00000080: 447d 7c3d 887a 49bd a60c 8ebc 4ecd 083d
00000090: 3e8e d6bb ad11 09bd 8f7f 193d 6376 e93c
000000a0: 7296 09bd 6499 95bd b2f9 a6bc b08d 073d
000000b0: dc8d debc 82ff 8c3c 9805 84bd 7642 be3c
000000c0: bb41 5ebc 8b8d 9e3c eac0 da3d db6b 503d
000000d0: 6162 593d 8bb4 fdbb f1c4 623d 5b80 a2bc
000000e0: dd7b 0fbc 73f1 4dbb 4760 803d 40ff c2bc
000000f0: 4ed3 a0bc 20c9 c3bc 5ce5 1cbd 4d33 803d
00000100: c353 abbb dc7b 483d 2aaa 71bc 5bdd 06bd
00000110: 2700 25bc a39d 1fbc 359d ea3c d5ed cb3c
00000120: d6d7 7f3b 68b7 e8bb b081 173d fe0a 903c
00000130: 3997 723d f131 443c 1366 213d ec3f cc3c
00000140: ba24 dfbc 94f5 38bd a2c6 bd3c f362 933d
00000150: 3f51 363d e849 bebc bc6f 013c 9bda 173c
00000160: b9bc 1c3d 46d6 6dbd 33fb 323d 1619 35bd
00000170: 690a b33c 58b3 233d b0d1 043d 3905 5cbc
00000180: 1621 67bd d229 4c3d 0fc4 ad3d 724f 763d
00000190: d04d eebb ed5d f63c 7ad2 cdbb 5a0d d63c
000001a0: 8086 87bc b3ca 18bd abd9 c53a 49bb 44bd
000001b0: a673 043c aba4 d03b 9545 a2bd 5ceb 02bd
000001c0: 9e2e 2abc 84cb 343b 43ae a9bc 1448 653d
000001d0: 16d6 9b3c 8ab0 b93c 9743 b93d fbdc a43c
000001e0: cf62 44bd 00ff 58bd e94c a63b d792 88bd
000001f0: 7f60 633d db95 b0bc c7c4 62bc fb71 16bd
00000200: 2a94 763d 80aa 5abd 1d61 aabc 4514 38bd
00000210: a7a2 b63c 7aac dd3c 3780 be3b 6c51 173d
00000220: 1aa5 6fbd 348d 9fbc 3629 5f3c e92d 573d
00000230: ff50 07bc ff13 f93c 819c 16bc f253 a7bc
00000240: 55b1 4c3d 533b 283d 9672 8e3d 228f 2f3d
00000250: f479 d63c b85d 19bd b013 543d 1f6f 103c
00000260: a802 18bd e707 f73c 7957 0d3d 64f2 753d
00000270: a6e2 7bbd d614 08bd 5d01 de3b 027f b93d
00000280: f8c7 e2bc f943 40bd 5097 923d 4fdc f23c
00000290: fd4e 83bd 6147 8a3c f5bf 0fbd 5ec1 97bc
000002a0: 72d9 8a3c 68dd bd3c bec4 2dbc 6d40 b1bd
000002b0: 5ccb 673c a927 893c d6ac 813d 0a9f 953b
000002c0: a4a8 a9bc 6d3f e6bc e157 4dbd 12a0 9bbd
000002d0: bdc8 bdbc 5860 dabc 1a2d a53d 3039 6e3b
000002e0: 7a4b eebc 714d 993c ecb8 e5bb d447 5b3c
000002f0: de71 0bbd 9ddd a73c ea6a 04bd c8df 243c
00000300: 2995 073d 6817 3abc 2ca9 743d d307 00bd
00000310: 0460 493d 8b56 4a3d 3d48 febb f175 013d
00000320: 7d84 a13c 38bd 683d 0ebd 1a3d f506 c23b
00000330: 01cb 14bd 3556 04bd 267f 32bc ff0d 753d
00000340: 5155 28bc bd5d 86bc 0420 89bd 5324 c83c
00000350: 08b5 803d ecd2 d1bc 409a 9ebc bfe7 103d
00000360: 64a9 17bd db45 c23c dc88 5ebd 3fa7 493b
00000370: b14f 34bd c397 0ebd 0cfa f6bc 5a70 a3bc
00000380: c68a 7b3d 3276 dfbc 7715 b73c a992 b7bc
00000390: a464 143d 67d9 873d e70e 823c cce1 a63d
000003a0: 89c9 243c 4e6e 94bc 1958 643d f23c 5abd
000003b0: 2832 4fbd a621 273c aa2e 9f3c 8ac0 1e3d
000003c0: 75d8 183c 3bc4 c5bc 3035 ac3d a850 d6bc
000003d0: 0dff 96bd 6f19 7f3c 7410 72bd 64c0 17bc
000003e0: 64f1 693d d0cb b4bc 6362 5fbc c3c0 743d
000003f0: b4e9 8d3a 60dc 1f3d 51a2 873d 484d 253d
0.042661462 -0.026866117 -3.293702e-05 0.035150025 0.04428348 0.03995258 -0.07956318 0.011951971
-0.00041570945 -0.007145764 0.021215485 0.09194681 -0.061890334 0.0048050485 0.009986889 -0.010923302
-0.015155677 0.044737894 0.038245603 -0.0015214836 0.03582865 0.055157296 0.0390157 -0.013189724
-0.009133007 0.024082994 -0.05055568 -0.050322436 0.10513965 0.021753816 0.038681548 0.075261265
0.0616429 -0.04918912 -0.017340016 0.03339892 -0.0065477183 -0.033464123 0.037475165 0.028498834
-0.03359074 -0.073046476 -0.020382736 0.033094108 -0.027167253 0.01721168 -0.064463794 0.02322505
-0.013565476 0.019354602 0.10681327 0.05088411 0.053072337 -0.0077424697 0.0553636 -0.019836595
-0.008757559 -0.0031424433 0.062683634 -0.023803353 -0.019632008 -0.023899615 -0.03830467 0.06259785
-0.005228491 0.048946247 -0.014750043 -0.032925945 -0.010070837 -0.009742173 0.028639415 0.02489368
0.003903856 -0.007101942 0.036988914 0.017583366 0.05922625 0.011974798 0.039403986 0.024932824
-0.027239192 -0.045156077 0.023166005 0.071966074 0.044511076 -0.0232286 0.007900175 0.009268428
0.038265917 -0.058065675 0.043696593 -0.044213377 0.02185555 0.039965957 0.032426536 -0.01342898
-0.056428038 0.04984457 0.08484661 0.06013436 -0.0072724596 0.030074084 -0.0062811943 0.026129413
-0.016543627 -0.037302684 0.0015094777 -0.04803017 0.008084213 0.006367286 -0.07923428 -0.031962737
-0.010387091 0.0027587125 -0.020712977 0.055976942 0.019022983 0.022667188 0.09046095 0.020124903
-0.047945794 -0.052977562 0.0050750864 -0.066686325 0.055511948 -0.021555832 -0.013840861 -0.036729794
0.060199894 -0.053385258 -0.02079826 -0.044941206 0.022294356 0.027059782 0.0058136242 0.036942884
-0.058507062 -0.01947651 0.013620665 0.052534018 -0.008259057 0.030405043 -0.009192587 -0.02042577
0.049973805 0.0410722 0.06955449 0.04286111 0.026181199 -0.037442893 0.051776588 0.008815556
-0.03711191 0.030155135 0.03450725 0.060045615 -0.061495446 -0.033222996 0.006775065 0.09057428
-0.027683243 -0.046939824 0.07157767 0.029646067 -0.0641155 0.01687974 -0.035095174 -0.018524822
0.01694939 0.023176864 -0.010605989 -0.08654866 0.014147606 0.016742544 0.06331794 0.004566078
-0.020710297 -0.028106416 -0.050132636 -0.0759889 -0.023167009 -0.026657268 0.08065243 0.0036350004
-0.029088724 0.018713685 -0.00701057 0.013383824 -0.03404414 0.020491416 -0.032328524 0.010063119
0.033101235 -0.01135812 0.059731647 -0.03125746 0.049163833 0.04939894 -0.0077600763 0.03160662
0.019716496 0.056821078 0.037777953 0.0059212395 -0.036326412 -0.032308776 -0.010894572 0.0598278
-0.010274247 -0.01640212 -0.066955596 0.024431383 0.06284529 -0.02561327 -0.019360662 0.03537726
-0.037026778 0.02371495 -0.054329738 0.0030769852 -0.044021312 -0.0348127 -0.030148529 -0.019951034
0.06141164 -0.02727804 0.022349102 -0.0224088 0.03622879 0.06633263 0.015876247 0.08148536
0.010057815 -0.018119004 0.05574808 -0.05328078 -0.050584942 0.0102008935 0.01943143 0.03875784
0.009328951 -0.024141422 0.08408582 -0.026161507 -0.07372866 0.015570029 -0.059097722 -0.009262178
0.057114974 -0.022069842 -0.013634297 0.059754144 0.0010827095 0.039028525 0.06622756 0.040356904

block3.0.bias f4 [128]
00000000: e9f7 2b3d 7197 13bc 6eae 0f3d a6ab 62bd
00000010: 7fc0 3f3d afdf 88bc b03e c83c d8ed 3d3d
00000020: 0c65 49bd ec25 80bd 5857 4d3d 0de3 783d
00000030: 6a11 153d 8388 1fbd f69b 46bd 9bf6 6bbd
00000040: 39c9 853b f4e5 61bd 6120 bf3c 26c8 c0bc
00000050: 2a8d b03c ac9e c03c 1010 48bd b942 023d
00000060: 5f34 47bd 351c 4c3d fb63 31bd 645e 753d
00000070: 3ebe a33a 9ea2 bdbc eaf5 303d 3b72 53bd
00000080: c3d7 df3b 5ecb d63a 1ac9 29bc bfaf 7ebd
00000090: ecb4 7cbd fd4b b0bc b30c 233d 20c8 74bb
000000a0: 7e90 c9bc ecca 70bd 8bad 863c e987 9a3c
000000b0: 98a9 fb3c fb93 d3bb 64e3 f0bb 8985 a63a
000000c0: 6299 45bd 48f6 cd3c 55d4 2f3d d987 3b3d
000000d0: a0eb 513d cd08 79bc dfcf 19bc af44 ffbb
000000e0: 3365 3dbb f9c4 f93c 6e25 173d d551 0dbd
000000f0: 0116 293d 2712 043d 4fa7 36bd 3a5b aebc
00000100: 1dbc 633d ed7d 81bc f9f1 0e3c 37f3 0a3d
00000110: 73e8 ef3a c027 343d c3f7 26bd 8e65 543d
00000120: ecc5 78bc b0f7 723c 408a 123d a797 48bc
00000130: 0ded 233d 96ac 883c 41e5 733b 0915 2fbd
00000140: 3cfd 1dbd 4bc4 003a 6b5e 13bc fb6b 77bd
00000150: af4e 633d 0df3 b83c 6e53 30bd 198e 233d
00000160: 0afb 5f3c d128 623d 9f7c 6fbd 445a 21bd
00000170: 972c 6f3d 5831 5bbd 0ff1 323d 6861 0e3d
00000180: 3147 d53c 240a 6e3c 947a 703d 223c 383d
00000190: ba56 7c3d 44cf 3d3d 2951 64bc 356a 96bc
000001a0: b33d a53c 98db 243d 9dca bbbb 0fec 6cbd
000001b0: 2162 0e3d 7358 32bd d758 7d3d 55ac 87bb
000001c0: f0c3 b93c e8cc 503b 10a3 83b8 a690 3ebb
000001d0: 8233 123d fcdf 5f3d a083 523d fb3e afbc
000001e0: 9681 7b3d fe0b 413d b6c4 3cbd 4315 3d3b
000001f0: 2af3 153d 45da 263c 5770 bfbb 9fe5 633d
0.041984472 -0.009008274 0.03507846 -0.055339478 0.046814438 -0.016708223 0.024443954 0.046369404
-0.04916863 -0.06257233 0.050132126 0.060763407 0.03639356 -0.038948547 -0.04848858 -0.05760823
0.0040828255 -0.05515094 0.02333087 -0.023532938 0.021551687 0.02351316 -0.048843443 0.031801913
-0.04863393 0.049831588 -0.04330824 0.05990447 0.001249261 -0.023148831 0.043203272 -0.05162261
0.0068311407 0.0016387512 -0.010362888 -0.062179323 -0.061695978 -0.021520609 0.039807033 -0.003735073
-0.024605032 -0.05878727 0.016440174 0.018863635 0.030720517 -0.0064568496 -0.007351326 0.0012704591
-0.04824198 0.02514185 0.042927105 0.04578385 0.0512501 -0.015199852 -0.009387939 -0.00779017
-0.002889943 0.030489432 0.03690093 -0.03450187 0.04128075 0.032243874 -0.04459315 -0.021283735
0.05559932 -0.015807116 0.008724683 0.033923354 0.0018303528 0.04398322 -0.040763628 0.051854663
-0.015183907 0.014829561 0.035776377 -0.012243188 0.04002099 0.016683858 0.0037215503 -0.04274467
-0.03857158 0.00049120624 -0.008994679 -0.060405713 0.05549496 0.022576833 -0.043048315 0.039930437
0.013670692 0.055214707 -0.058468457 -0.039392725 0.058392134 -0.053513855 0.043686923 0.034760863
0.026034923 0.014528785 0.05871065 0.044979222 0.061606146 0.046340242 -0.013935366 -0.01836119
0.020171022 0.040248483 -0.0057309405 -0.05784231 0.03476155 -0.043541383 0.061852302 -0.0041404166
0.022676438 0.0031860415 -6.2769395e-05 -0.0029077916 0.035693653 0.054656968 0.05139506 -0.021392336
0.06140288 0.047130577 -0.046086036 0.0028851784 0.036608852 0.010183875 -0.0058422494 0.055638906

block3.1.weight f4 [128]
00000000: b25e 7f3f 38c6 813f a751 823f 63b6 823f
00000010: a681 803f 5610 843f 3e80 813f d389 7d3f
00000020: a61b 823f 4cc6 7e3f 9fc0 853f e7f7 853f
00000030: 1ba9 853f 01b6 833f 1e1c 863f a3fe 803f
00000040: cd78 7a3f bbd7 863f cc21 833f b23c 823f
00000050: c83c 803f 88ab 853f d3b6 813f bd61 823f
00000060: cbe5 833f b966 833f 9e9a 823f 43ce 843f
00000070: ce56 813f f3a9 853f 41d5 7e3f 3bbe 813f
00000080: 4265 823f 8a30 963f 4a6b 813f 8f5a 853f
00000090: a0ec 7f3f 41ca 833f ab4b 813f c63f 833f
000000a0: e664 7c3f ab73 803f afcf 843f 4263 863f
000000b0: 6a54 853f 3272 803f 5a15 853f 505f 853f
000000c0: 3627 863f b01d 8b3f 35d0 833f 476d 823f
000000d0: b66e 813f c297 823f cd3f 823f 7687 803f
000000e0: 5dc0 803f 7c6f 883f 2ce2 843f 6254 823f
000000f0: 76db 813f 9cd7 843f 9f03 813f c604 7a3f
00000100: bd66 823f e51c 863f bae7 823f e5f0 843f
00000110: 8ee5 7c3f e154 853f 0ff1 813f 3a15 833f
00000120: 9c5e 843f 4288 813f 4b08 893f 752a 883f
00000130: 76ee 803f c32d 823f 5af8 813f 2e27 853f
00000140: 4955 843f 91c4 833f 52ec 833f 51c4 823f
00000150: 532e 863f 1530 813f 0384 863f c2e8 843f
00000160: d79d 803f b937 843f dfb2 823f a49c 833f
00000170: be27 843f 83f7 783f 5b3a 843f 1091 813f
00000180: f9da 7b3f f182 833f 5631 853f a8c5 803f
00000190: 53e9 853f 7a90 813f 223e 843f 4553 803f
000001a0: f571 7d3f 5f8e 813f d882 7d3f 1f12 883f
000001b0: fa99 843f 45dc 813f a8cd 883f 1243 823f
000001c0: 1033 843f 2ed9 843f ae06 7c3f bbd1 843f
000001d0: 2b95 843f d686 823f 4b50 813f 0334 843f
000001e0: f236 7f3f e2f5 813f 2a68 7e3f f0e7 7f3f
000001f0: 4f51 833f 3710 773f 049f 843f f143 843f
0.9975387 1.0138617 1.0181168 1.021191 1.0039566 1.0317485 1.0117261 0.9903843
1.0164688 0.99521327 1.0449408 1.0466279 1.0442232 1.0289918 1.0477331 1.0077709
0.9784058 1.0534586 1.0244689 1.0174773 1.0018549 1.0442972 1.0133919 1.0186077
1.0304502 1.0265723 1.0203435 1.0375446 1.0104616 1.0442489 0.9954415 1.0136179
1.0187151 1.1733563 1.0110867 1.0418261 0.99970436 1.0296098 1.0101217 1.0253837
0.9859146 1.0035299 1.037588 1.0499041 1.0416386 1.003485 1.0397141 1.0419712
1.0480716 1.0868435 1.0297915 1.0189599 1.0111911 1.0202563 1.017572 1.0041339
1.0058705 1.0659022 1.0381522 1.0182002 1.0145099 1.0378299 1.007923 0.97663534
1.0187603 1.0477568 1.0226967 1.0386015 0.9878777 1.0416528 1.015169 1.0240853
1.0341372 1.0119708 1.0705656 1.0637957 1.0072773 1.0170215 1.0153916 1.0402582
1.0338527 1.0294362 1.0306494 1.0216161 1.0482887 1.0092798 1.0509037 1.0383532
1.0048169 1.0329505 1.0210837 1.0282178 1.0324628 0.9725267 1.0330309 1.0122395
0.98381 1.0274335 1.0405681 1.006032 1.046183 1.0122216 1.0331461 1.0025412
0.9900201 1.0121573 0.99027777 1.063053 1.035949 1.0145346 1.0687761 1.0176718
1.0328083 1.0378778 0.9844769 1.0376505 1.0358022 1.0197399 1.0102628 1.0328373
0.99693215 1.0153162 0.9937769 0.99963284 1.0259188 0.96509117 1.0361028 1.0333234

block3.1.bias f4 [128]
00000000: ed21 40bc 034a b83c be29 f13b fa00 ce3c
00000010: bb1c 88bc 46d8 b93c c661 78bc 38e9 38bd
00000020: 8892 cf3c 10a2 ccba 27c7 c43c 7703 d13c
00000030: 6b21 0d3d 591a ca3b 5e92 e13c 4fd5 72bc
00000040: 25bf 17bd d025 223d da7e 423b 0c13 353c
00000050: 544a 2dbd 105a e83c eff2 483a 42e2 fa3b
00000060: fe6e 1cbc 2ad3 2cbb b4e9 5dbc f3e2 88bb
00000070: d427 2cbc 9f41 0a3d a771 c0bc 2167 d53b
00000080: 6ccc 513b 1906 883d 28db 02bc 42e3 dd3c
00000090: 2baf 523b 2e7e 283c e4ed df3b a35d d03b
000000a0: f6cb 04bd 5ecb 4dbc 3d3b 1c3c 69f9 773c
000000b0: 42c5 ed3a 6985 27bd 4ea1 2e3c f800 a236
000000c0: 2f93 8c3c bff8 2b3d da5c 023c cac1 a83c
000000d0: d8bf 7ebc 15f8 993b a261 303d 7a1f a7bb
000000e0: 0efd 863b fe72 973d e670 923c 5c29 3ebb
000000f0: cb73 7ebc bca0 0dba 8de6 3e3c 19f7 25bd
00000100: d9f7 473b b6cc bd3c 3fde 5c3b 8525 ce3c
00000110: 3a96 12bd ca58 273c 5fcd 8abb c048 6e3c
00000120: 34f7 1e3c 8de5 793b 7641 a43c 9427 453b
00000130: 126a 3f3c 7c5d 03bc d4f2 ccb9 5a1c d63c
00000140: ddbd 2f3a c2e2 3f3d a944 c53b 50b7 ce3a
00000150: 1f2d 303c 3dd9 a6bc 8d26 803a 172d 573c
00000160: b098 c1bc 8d48 9c3c f1cc 71bc 59a6 ab3c
00000170: 9a02 babb 667b 8dbc e299 2bbc 2967 c3bc
00000180: dc3f 22bd 8e3d 84bc 930a a8bb ff5f d23a
00000190: 7208 463c 2b41 cb3b 59b9 5f3c 14b9 f3bc
000001a0: 0ac3 f53b 4ed3 263c 0ed0 0cbd 81c2 9b3b
000001b0: f101 6dbb 38a7 56bc bd72 e13a 5e84 6cba
000001c0: 9c4f a43c 8f05 28bc 5383 adbc 780a 8a3c
000001d0: 3f87 ce3b 9006 0cbc b302 25bb 6d59 1e3c
000001e0: 6d7a 54bd 45ec 8d3c e04a 10bc 8b8f 53bc
000001f0: a66e f33c 5444 00bd b3a8 90bc 96f7 683a
-0.011726839 0.022496229 0.0073597124 0.02514695 -0.016615262 0.022686135 -0.01516003 -0.04514429
0.025338426 -0.0015612263 0.024020744 0.025514347 0.034455698 0.0061676917 0.027535614 -0.014821365
-0.037047524 0.039586842 0.002967766 0.011051904 -0.042307213 0.028363258 0.00076655945 0.0076563666
-0.009547947 -0.002637098 -0.013544489 -0.004177445 -0.010507543 0.033753987 -0.023491694 0.006512538
0.0032012714 0.06641788 -0.007986821 0.027085904 0.0032147865 0.01028399 0.0068337787 0.0063588186
-0.032421075 -0.012560694 0.009535608 0.015135148 0.0018140452 -0.040898714 0.010658575 4.828089e-06
0.017160026 0.04198527 0.007956708 0.020600218 -0.015548669 0.004698763 0.04306186 -0.005100188
0.004119522 0.0739498 0.0178761 -0.0029016351 -0.015530537 -0.00054026744 0.011651647 -0.040518854
0.003051272 0.023168903 0.0033701805 0.025164375 -0.0357878 0.01021404 -0.004235908 0.014543712
0.0097024925 0.0038131208 0.020050745 0.0030083405 0.011683004 -0.008017894 -0.00039090833 0.026136566
0.0006704012 0.046847112 0.006020148 0.0015771184 0.010752945 -0.02036726 0.0009777114 0.013133309
-0.023632377 0.019077564 -0.0147583345 0.020953344 -0.0056765797 -0.017270755 -0.0104737 -0.023852902
-0.039611682 -0.016142633 -0.0051282137 0.0016050338 0.012086974 0.006202837 0.01365503 -0.029751338
0.007500057 0.010182215 -0.034378104 0.0047534113 -0.0036164487 -0.0131013915 0.0017200332 -0.000902241
0.020057492 -0.0102552315 -0.021180784 0.016850695 0.0063027437 -0.0085464865 -0.002517861 0.009664875
-0.051874567 0.017324576 -0.008806914 -0.012912641 0.029715847 -0.031315163 -0.017658567 0.0008886991

block3.1.running_mean f4 [128]
00000000: 0667 ad3f 6318 043f 239f 2e40 9807 e23f
00000010: b713 0c40 59e5 943f b02f 3040 5abe 3d40
00000020: be10 25c0 913f fdbd 707f d63f 514a cd3f
00000030: ac11 b03f b069 4140 9787 853e b6d2 1f40
00000040: 9db4 1e40 84f2 da3f 4eb9 b13f bafd 1640
00000050: 1d06 4a40 44a9 a53f 7cb4 f13f 03f3 cc3f
00000060: e2fd c33f 4216 2840 b96f 3540 6450 8d3f
00000070: 909d 3540 4204 083f 06d8 6240 7ee8 663f
00000080: aba8 2140 7054 23be 9eb9 3c40 43a2 de3c
00000090: 35c1 06be 50bf 2340 7189 c93f 2429 c13f
000000a0: 84a5 5140 ea5a c33f d223 773f 343c 4e40
000000b0: f939 2340 f14f 4540 2b97 3140 798c 2d40
000000c0: 6870 5d3f b03c efbe 4be8 9c3f 3052 2140
000000d0: 61df 9d3f 72c4 0a40 36e3 a1c0 31a2 ef3f
000000e0: 145a 1840 4337 55bf 57b7 953f 7fe6 fc3f
000000f0: 3e06 3840 3a96 4940 1152 393f 06c6 1c40
00000100: 8574 1f40 7bec 0d40 8f5c 2d40 d25c 973f
00000110: b254 5340 34c0 2240 dc05 1840 78d1 e63f
00000120: d464 2840 b4e1 0140 2f1c e43e a5a6 dd3f
00000130: 9743 a23f 330d 5240 1b02 0d40 3796 dc3d
00000140: 7816 2140 e7a7 2ec0 e207 693f 1a88 2a40
00000150: 1141 bd3f e92b 0b40 bfb2 1540 3575 2140
00000160: 801c 5040 9439 3640 cc19 3540 850c b73f
00000170: f67c 4240 1af5 f13f 46c0 3440 4a39 0540
00000180: 7e72 4d40 e6a6 1a40 e31a 3b40 058f b93f
00000190: ea8f c33e b1c2 e13f 26c1 2440 6824 3c40
000001a0: 203e 0d3f 0873 d83f 6af8 1f40 1d5f 1d40
000001b0: 5262 5840 7de5 2340 96c8 4d40 ffc2 2040
000001c0: 8600 0f40 9e4c 0140 224c cf3f 0755 3d3f
000001d0: 788b e13f 9c20 b83e 3e5e 0040 2392 aa3f
000001e0: 37fb 5340 aeee c73e 13cd 333f dd35 2240
000001f0: 80f9 ab3f 2595 cf3f 8d7d 1b40 4a31 cd3f
1.3547065 0.5159971 2.728463 1.7658567 2.1887033 1.1632491 2.7529106 2.9647431
-2.5791469 -0.1236564 1.6757641 1.6038305 1.3755393 3.0220757 0.2608001 2.4972358
2.4797738 1.710526 1.3884676 2.3592362 3.1566231 1.2942281 1.8883204 1.6011661
1.5311854 2.6263585 2.834944 1.1040158 2.8377419 0.53131497 3.544435 0.90198505
2.5259197 -0.15950179 2.9488292 0.027176982 -0.1315964 2.5585518 1.5745069 1.509068
3.2757273 1.526212 0.9653903 3.2224245 2.5504134 3.0830042 2.7748516 2.7116988
0.86499643 -0.46725988 1.225839 2.5206413 1.2333795 2.16824 -5.0589857 1.8721372
2.380498 -0.8328745 1.1696576 1.9757842 2.875381 3.149794 0.7239085 2.4495864
2.4914868 2.2175586 2.7087743 1.1825202 3.3020444 2.5429811 2.3753576 1.8032675
2.631154 2.0294008 0.44552752 1.7316481 1.2676877 3.2820556 2.2032535 0.10770839
2.5169964 -2.728998 0.91027653 2.664557 1.4785482 2.174555 2.3390348 2.5227787
3.2517395 2.8472643 2.8296995 1.4300696 3.038877 1.8902924 2.8242354 2.0816216
3.210113 2.4164367 2.923516 1.4496771 0.38195735 1.763754 2.5742888 2.939722
0.5517292 1.6910105 2.499537 2.4589303 3.381001 2.5608819 3.2153678 2.5119016
2.234407 2.0203013 1.6195109 0.73957866 1.7620687 0.3596238 2.005752 1.3325847
3.312208 0.39049286 0.70234793 2.5345376 1.3435516 1.621739 2.429538 1.6030667

block3.1.running_var f4 [128]
00000000: 5aba 8140 d562 d140 7635 8940 3d26 d740
00000010: adb2 fe3f 608b b540 e788 8640 c243 fa3f
00000020: ca67 ff40 c7d5 ca40 d366 f740 2a2e 7b40
00000030: 2463 9340 7492 a43f f42f 1141 fda2 1a41
00000040: e979 cc40 a166 ee40 3666 3a41 a9f8 aa40
00000050: 7517 1f40 08b2 2941 9cca b040 dfb4 9c40
00000060: eed4 2341 a599 4240 1f1e d440 8ca4 3e41
00000070: deaa 5740 e88c 0241 5e01 4240 c093 0641
00000080: 97d1 e140 caa5 f440 f84d 3940 378d d140
00000090: 234f 9140 25ca 8940 fbe4 3a40 3f75 c740
000000a0: 6626 ca40 c86b 9f40 85f8 f540 fa4b 8740
000000b0: 42e1 7140 286f 6240 49b2 5640 329b 8140
000000c0: 79fe 7a40 abd5 0541 23e6 d640 09c7 b240
000000d0: 08f5 5e40 2fdb 0341 ee6a b840 2bd9 ab40
000000e0: abda 8c40 a33e c540 849f 8740 f321 9f40
000000f0: f93b 1940 d36b 8440 76c5 b940 963d 6840
00000100: 2696 0841 a4c5 1740 b007 0541 3b44 0141
00000110: ae38 ac40 9769 a43f 4010 0341 53c8 8440
00000120: 7725 4540 1247 bc40 2cc8 cd40 9a1f 1541
00000130: 4c03 e440 ac39 0540 7938 a840 4347 1341
00000140: aba0 cb3f 3bfe 2741 4cf4 3a41 4470 8040
00000150: ed00 6740 9555 3141 6439 3240 efc8 c540
00000160: 0bc2 8e40 5998 2840 f657 b440 0707 4b40
00000170: 4b59 6940 2369 8840 86a6 4e40 48aa 4740
00000180: 30df 4540 b7a1 2d41 757d 0a41 2c74 6b40
00000190: f291 a640 4b11 3640 c9a9 5840 e18f 5a40
000001a0: 4deb b540 1758 ea40 ea2c 9640 56f5 c440
000001b0: 4709 5940 676d 1441 abad 5140 1f1a db40
000001c0: 3206 1941 a99b f340 364a 6440 c29a 1f41
000001d0: 5f14 6940 a447 1a41 cf37 3440 5e64 f540
000001e0: 93ad 3b40 d54d 5140 ec68 1f41 8399 6b40
000001f0: 72ea d840 5277 bd40 85bd af40 4996 2a40
4.053998 6.5433145 4.287776 6.7234178 1.9898278 5.6732635 4.2042117 1.9551928
7.9814196 6.338596 7.731302 3.9246926 4.605852 1.2857194 9.074207 9.664792
6.3898816 7.450028 11.649954 5.342854 2.4858067 10.605965 5.5247326 4.897079
10.239485 3.0406277 6.628677 11.915173 3.369804 8.159401 3.0313334 8.411072
7.0568347 7.645238 2.8953838 6.548488 4.5409102 4.305926 2.9202259 6.2330623
6.3171873 4.981907 7.686587 4.2280245 3.7793736 3.5380344 3.3546317 4.0501947
3.9217818 8.364665 6.715593 5.5867963 3.4837055 8.241012 5.763053 5.37026
4.401693 6.163896 4.238222 4.972894 2.3942854 4.138162 5.805354 3.628759
8.536657 2.371438 8.314377 8.079158 5.381919 1.2844723 8.191467 4.1494536
3.0804117 5.8836756 6.430685 9.320215 7.1254025 2.081645 5.2568936 9.204898
1.5908407 10.499568 11.684643 4.0137043 3.6094315 11.083394 2.7847528 6.180778
4.461187 2.6342986 5.6357374 3.172304 3.646075 4.262834 3.2289138 3.1197681
3.0917473 10.851981 8.655629 3.6789656 5.2053156 2.8448055 3.3853629 3.4150317
5.6849732 7.323253 4.6929827 6.154948 3.3911912 9.27671 3.2762249 6.8469386
9.564013 7.6127515 3.5670295 9.975283 3.6418684 9.64249 2.8159063 7.668502
2.9324691 3.2703755 9.963116 3.6812446 6.778619 5.9208155 5.4918847 2.6654227
